Quixo/my_model0_75.pth (torch, 301328 bytes, 14 tensors)

shared_mlp.mlp.0.weight f4 [128, 25]
0.009232456 -0.09371119 0.11517316 -0.03402058 -0.038217563 -0.15355909 -0.08377548 0.06751083
0.098195225 0.115060136 0.15075465 -0.1565199 -0.03758031 0.10219109 -0.0355597 -0.051456366
-0.024059515 0.029585643 0.15188101 0.0819042 0.09453348 -0.17775945 -0.12136161 0.15438102
0.14442663 -0.10150887 -0.046339348 0.016093802 -0.09811122 -0.11786332 0.16610283 0.06184703
-0.15505025 0.10778992 -0.05494975 0.0083611775 0.029800449 0.08626428 -0.076190695 0.11213737
0.16997732 -0.0051677404 0.050904565 0.10337417 -0.16833709 -0.13893801 -0.03154802 -0.07240879
0.12337723 -0.15796009 0.008564079 -0.010875859 0.015412847 0.0769207 -0.14293371 -0.014642328
-0.018868871 0.10092522 -0.16368765 0.15655516 -0.017790638 -0.11460561 -0.18805365 0.08288737
-0.0579044 0.033464786 -0.07313765 0.119679905 -0.12061311 0.04506983 -0.17262542 0.06558703
-0.16931346 0.06308553 0.060047515 0.03814848 -0.13718586 -0.18409958 0.1319892 -0.127488
0.009589492 0.18668999 0.116940066 -0.118487455 0.0206902 0.02987442 -0.0070507564 0.037355244
0.0114841405 -0.10148028 -0.030006 0.16764411 -0.040779345 -0.16227159 -0.08946039 -0.112073585
-0.1296761 0.01756579 -0.063476935 0.08908614 0.032134496 0.009087098 -0.032810424 -0.093394004
0.16759828 0.11329318 0.068029806 -0.01742546 0.16155916 -0.16452904 -0.041075185 0.15825179
0.10066015 -0.10185806 -0.009200769 0.100438155 0.07477248 -0.11500767 -0.14466494 -0.16737533
0.110831134 -0.12313749 -0.17948246 0.15106228 0.12699386 -0.0007790418 0.116907746 0.009831964
0.14298068 0.06358586 -0.043009844 0.0022167861 -0.08924422 0.15435795 0.07115635 0.053607628
-0.104759924 -0.1074815 0.06896593 -0.113719456 0.040883783 -0.09361179 -0.060530335 -0.043540724
-0.080886625 -0.0040373364 0.041835397 0.0677714 0.05763751 -0.1592151 -0.05012847 0.020010669
-0.16553731 -0.12736073 -0.057872396 -0.07268191 -0.028879713 0.16465142 -0.13089308 -0.068425104
0.070781045 -0.037312962 -0.02235922 -0.09283789 0.18419705 -0.12523182 -0.0708256 -0.02282373
0.15207869 -0.12729058 0.12453429 -0.10667065 0.080882534 -0.19303639 -0.100044854 -0.004676567
0.06597435 -0.16369653 0.07412437 0.1074551 0.035764717 0.16411765 0.10596557 -0.09786741
0.056137685 -0.110259995 0.114722185 0.04220067 -0.08883395 0.030787684 0.05778806 0.14148453
-0.1668321 -0.067547545 -0.14548327 0.01277763 0.047680706 0.15451024 -0.16433832 0.17675817
0.10257159 -0.05341077 0.01809113 0.18607697 -0.09261101 0.016206583 0.16357714 0.107805096
0.022041673 -0.11120925 0.06994816 -0.11918125 0.18002458 -0.13997392 -0.076679416 0.09796274
0.015451189 -0.062557295 0.018041164 0.15783373 -0.09058703 -0.1080879 0.011261005 0.17189229
-0.018639663 0.11424304 -0.14487837 -0.029882101 -0.10327893 0.16410144 0.0019056686 0.1700383
0.057096813 0.07930979 0.024369411 -0.1276933 0.090844385 -0.07775933 -0.11676721 -0.13795945
0.079882726 -0.0015839813 0.18258594 -0.0032062677 0.09268775 0.04721456 -0.02807206 0.10057355
0.07604276 0.14066662 0.091889255 -0.15192239 0.09848118 0.019000387 0.07390434 -0.00042989585
00000000: ba43 173c a7eb bfbd e8df eb3d 2a59 0bbd
00000010: 058a 1cbd 983e 1dbe 7b92 abbd 1e43 8a3d
00000020: 941a c93d a6a4 eb3d 6d5f 1a3e c146 20be
00000030: d0ed 19bd 9049 d13d 0ca7 11bd e9c3 52bd
00000040: 7618 c5bc 975d f23c b286 1b3e 64bd a73d
00000050: c59a c13d 9306 36be 708c f8bd 0f16 1e3e
00000060: 93e4 133e e2e3 cfbd 54ce 3dbd 26d7 833c
00000070: 89ee c8bd 5362 f1bd dc16 2a3e 5053 7d3d
00000080: 7ec5 1ebe f6c0 dc3d fd12 61bd 52fd 083c
00000090: 1220 f43c 54ab b03d de09 9cbd 47a8 e53d
000000a0: 890e 2e3e 2656 a9bb 4e81 503d d6b5 d33d
000000b0: 8f60 2cbe c445 0ebe 7f38 01bd 0f4b 94bd
000000c0: 33ad fc3d 4ac0 21be 5a50 0c3c a930 32bc
000000d0: 2a86 7c3c 9a88 9d3d 375d 12be 60e6 6fbc
000000e0: e492 9abc e2b1 ce3d bc9d 27be ff4f 203e
000000f0: acbd 91bc 59b6 eabd 2391 40be dac0 a93d
00000100: 2a2d 6dbd 5f12 093d 31c9 95bd bd1a f53d
00000110: 0204 f7bd 249b 383d b8c4 30be 7e52 863d
00000120: 8260 2dbe fd32 813d 62f4 753d 9541 1c3d
00000130: 737a 0cbe 9a84 3cbe 2d28 073e 378c 02be
00000140: 3f1d 1d3c a92b 3f3e 467e ef3d 8da9 f2bd
00000150: 7f7e a93c 33bb f43c 080a e7bb d001 193d
00000160: fa27 3c3c e5d4 cfbd 25cf f5bc e6aa 2b3e
00000170: 3e08 27bd 862a 26be 0237 b7bd d686 e5bd
00000180: d0c9 04be 22e6 8f3c 3200 82bd cb72 b63d
00000190: 769f 033d 0de2 143c 3964 06bd 5b45 bfbd
000001a0: e29e 2b3e 4106 e83d 3653 8b3d d7bf 8ebc
000001b0: c46f 253e 4d7a 28be 743e 28bd c20c 223e
000001c0: e926 ce3d f59a d0bd d2be 16bc 85b2 cd3d
000001d0: 5022 993d 2489 ebbd 0c23 14be 7064 2bbe
000001e0: 6ffb e23d 822f fcbd 40ca 37be 12b0 1a3e
000001f0: ae0a 023e 9c38 4cba 546d ef3d 3f16 213c
00000200: 8769 123e 4e39 823d 172b 30bd 8047 113b
00000210: acc5 b6bd 0310 1e3e 6cba 913d ac93 5b3d
00000220: 5f8c d6bd 431f dcbd 023e 8d3d bfe5 e8bd
00000230: c175 273d 8ab7 bfbd a8ee 77bd c257 32bd
00000240: e3a7 a5bd a24b 84bb 985b 2b3d bbcb 8a3d
00000250: 4f15 6c3d 4809 23be 8353 4dbd 6aed a33c
00000260: 9d82 29be da6a 02be 9b0b 6dbd 41da 94bd
00000270: 2695 ecbc 629a 283e d608 06be 7622 8cbd
00000280: a7f5 903d 7ad5 18bd af2a b7bc cb21 bebd
00000290: 279e 3c3e c53c 00be 030d 91bd d5f8 babc
000002a0: 84ba 1b3e 7658 02be d50b ff3d 2476 dabd
000002b0: bea5 a53d 55ab 45be 51e4 ccbd e33d 99bb
000002c0: 8f1d 873d 10a0 27be 85ce 973d 6b11 dc3d
000002d0: 067e 123d 750e 283e 7a04 d93d b56e c8bd
000002e0: a1f0 653d fecf e1bd 77f3 ea3d 9cda 2c3d
000002f0: 93ee b5bd 7436 fc3c 2cb3 6c3d 52e1 103e
00000300: 09d6 2abe 5e56 8abd 91f9 14be 4459 513c
00000310: d84c 433d ef37 1e3e 4e48 28be 1800 353e
00000320: 0e11 d23d 40c5 5abd d933 943c f68a 3e3e
00000330: d7aa bdbd abc3 843c c480 273e ebc8 dc3d
00000340: bd90 b43c adc1 e3bd fb40 8f3d 4d15 f4bd
00000350: 5d58 383e 5355 0fbe 190a 9dbd b0a0 c83d
00000360: fc26 7d3c 0a1e 80bd 10cb 933c 2a9f 213e
00000370: b185 b9bd 305d ddbd 1480 383c 8804 303e
00000380: 35b2 98bc 41f8 e93d ff5a 14be 4fcb f4bc
00000390: e783 d3bd 350a 283e a1c7 f93a 851e 2e3e
000003a0: 59de 693d 2c6d a23d 5ca2 c73c 08c2 02be
000003b0: 9f0c ba3d 4940 9fbd a623 efbd 3e45 0dbe
000003c0: 8e99 a33d 989d cfba cff7 3a3e 3f20 52bb
000003d0: 13d3 bd3d 0e64 413d 60f7 e5bc 81f9 cd3d
000003e0: 4ebc 9b3d e90a 103e 6f30 bc3d 8b91 1bbe
000003f0: 80b0 c93d b3a6 9b3c 295b 973d a563 e1b9

shared_mlp.mlp.0.bias f4 [128]
-0.12634836 -0.0015134393 0.200207 -0.2823748 0.09030543 -0.33791974 -0.07901029 -0.05617824
-0.055227533 0.06028542 0.088893384 0.38663074 -0.011057941 0.00031235226 -0.06559772 -0.045983978
-0.045835152 0.35633585 0.22462925 0.16624264 0.24356113 -0.11486016 -0.15433766 -0.15912494
-0.2724937 -0.20505589 0.051005647 0.13465592 0.004544416 -0.39192823 0.046569023 0.018492082
-0.09132215 0.14814977 0.5426626 -0.1958434 0.18293507 0.10807199 -0.18339838 0.3558539
-0.15060449 -0.1250282 0.44190225 -0.042811792 0.048910234 0.15864168 0.23929621 -0.24072707
-0.07788144 0.039536722 0.2656138 0.05517686 0.053011548 0.034401923 0.12471897 -0.13540271
0.16302717 -0.32583603 -0.10767581 -0.2513059 -0.163453 0.20796011 -0.022156658 0.66504705
0.24531548 0.29390225 -0.0962579 0.24691848 -0.103876196 0.21477388 0.06421888 0.0026529003
0.037087973 0.33388078 0.07222885 -0.14274184 -0.20693205 0.1579215 -0.08107674 -0.054784488
-0.17940624 -0.02400468 -0.11384148 -0.21068153 0.02104365 -0.21691684 0.05248982 0.57055473
0.4325649 0.32471135 0.07846604 -0.2455246 0.23597951 -0.09716859 -0.105593 -0.14112252
0.426318 0.034090523 0.07369675 -0.06462749 0.010436302 0.33493432 -0.30815783 0.084141225
-0.12005871 0.079394594 -0.11841418 -0.17892148 0.24822742 0.10355405 -0.03829616 0.14640675
0.1478133 -0.19325028 -0.15310283 0.08499738 -0.069040455 0.09435945 0.21100698 0.21188474
-0.10061133 0.19318686 -0.13843332 -0.10306687 0.15747885 -0.16296493 0.27393314 0.2250263
00000000: 7761 01be 995e c6ba 1003 4d3e 6e93 90be
00000010: 0ef2 b83d d103 adbe 26d0 a1bd 271b 66bd
00000020: 4436 62bd d8ed 763d bc0d b63d 77f4 c53e
00000030: 5e2c 35bc 36c3 a339 1958 86bd b259 3cbd
00000040: a4bd 3bbd a771 b63e 3605 663e 833b 2a3e
00000050: 1768 793e ce3b ebbd b10a 1ebe a6f1 22be
00000060: 4b84 8bbe 2cfa 51be 4ceb 503d 3ee3 093e
00000070: 53e9 943b d1aa c8be 29bf 3e3d b57c 973c
00000080: 1b07 bbbd 93b4 173e f0eb 0a3f 2c8b 48be
00000090: 5553 3b3e d954 dd3d c9cc 3bbe 7b32 b63e
000000a0: 1038 1abe 6407 00be 0341 e23e 6b5b 2fbd
000000b0: 1956 483d f772 223e 110a 753e 2881 76be
000000c0: 4e80 9fbd 42f1 213d 88fe 873e 2201 623d
000000d0: a322 593d 08e9 0c3d a96c ff3d 02a7 0abe
000000e0: 98f0 263e fbd3 a6be 2385 dcbd 2bab 80be
000000f0: 3960 27be 7ff3 543e e181 b5bc 8640 2a3f
00000100: fb33 7b3e 5b7a 963e dd22 c5bd 33d8 7c3e
00000110: 0bbd d4bd afed 5b3e 3085 833d 48dc 2d3b
00000120: 8fe9 173d 6cf2 aa3e b8ec 933d eb2a 12be
00000130: ffe5 53be 2cb6 213e 900b a6bd b365 60bd
00000140: 45b6 37be 76a5 c4bc b925 e9bd e6bc 57be
00000150: bc63 ac3c 731f 5ebe 91ff 563d e00f 123f
00000160: 2679 dd3e 9140 a63e ceb2 a03d cd6a 7bbe
00000170: 9da4 713e 5300 c7bd 2541 d8bd 6c82 10be
00000180: 5a46 da3e 81a2 0b3d 52ee 963d 6b5b 84bd
00000190: 06fd 2a3c 837c ab3e ddc6 9dbe 3c52 ac3d
000001a0: 57e1 f5bd a299 a23d 2283 f2bd 3137 37be
000001b0: 542f 7e3e 2514 d43d 6fdc 1cbd a7eb 153e
000001c0: 5f5c 173e 67e3 45be fdc6 1cbe 1b13 ae3d
000001d0: 1565 8dbd 873f c13d 3712 583e 50f8 583e
000001e0: 500d cebd c7d2 453e 77c1 0dbe b914 d3bd
000001f0: 2342 213e 47e0 26be f740 8c3e 4b6d 663e

shared_mlp.mlp.2.weight f4 [128, 128]
0.04368352 0.0058448957 0.062207915 -0.009640484 -0.11685014 -0.15658414 0.10829232 -0.0008568247
-0.09100144 -0.13075452 -0.11396227 -0.062020164 0.028261932 -0.133222 0.051565476 0.021343455
0.043299966 -0.02408062 0.03910706 -0.07926751 0.111019194 0.0227762 -0.033618316 -0.028349746
-0.041293874 -0.085732184 0.02202351 -0.04493981 -0.12515602 0.01645882 -0.0897946 -0.15438692
0.08667811 -0.09108923 -0.08224499 0.11596469 -0.09390653 0.12315809 0.03901011 -0.024911221
0.033811808 -0.10994553 0.047881287 -0.069035694 -0.12509492 -0.13112077 -0.06674561 -0.12722795
-0.07742086 0.076903336 0.04783129 0.1071702 0.15274122 0.10286799 0.036392376 0.05593656
0.09439788 -0.04751392 -0.057477456 0.06167337 0.02292122 -0.06027922 -0.06891361 0.14604476
0.049430393 -0.07311039 0.13191223 -0.035385065 0.09834473 0.01699608 -0.036336854 -0.12753814
0.029833866 0.1561651 0.12783548 -0.08037871 0.08943931 0.1460174 -0.02043702 -0.12106094
-0.13914727 0.14455138 0.056118466 0.026265945 0.084642865 -0.026783051 0.0030264435 -0.021412442
-0.03955458 0.041861154 -0.02423727 -0.087288484 -0.086741135 -0.14159182 -0.056953665 -0.06983024
0.1103421 -0.03708609 0.020963812 -0.13251102 -0.108185925 0.16166806 -0.13040592 0.044742767
0.13709807 -0.037072904 0.0006984849 0.023281096 0.1044573 0.1497615 -0.067842826 -0.087222666
-0.10798592 0.058292616 0.015639242 -0.047518052 0.086258195 0.1220004 -0.11174417 -0.022348074
0.05217105 0.05297115 0.09604157 0.013337686 0.06243049 0.08741774 0.088530995 0.10634135
0.024976533 0.028722648 0.06653271 0.116343 0.10457579 0.14722806 0.06383506 0.041573297
0.12944026 -0.014306736 0.076731466 -0.17719504 0.09846722 -0.14135802 -0.0572316 -0.02360733
0.13341141 -0.13793825 -0.07707606 -0.1415753 0.022216368 0.028367462 -0.13100879 -0.054405596
0.07269969 0.047781892 0.011851865 -0.07543624 -0.15620114 0.062335514 0.14916775 0.06781732
0.025264869 -0.09772957 0.06555679 0.042288654 -0.017052557 -0.05825166 0.079955846 -0.046754148
0.011854786 -0.032411702 -0.008088343 -0.057078592 -0.08716083 0.06362991 -0.06900645 0.10026758
-0.12679787 -0.11584395 0.014036847 -0.062263757 -0.10533229 0.14395545 0.0894326 0.1348058
-0.014973128 0.09378614 0.0374555 0.10478762 0.1058347 -0.0073711346 -0.15031213 -0.061504234
-0.07207449 -0.16994825 0.0041949195 0.1265837 -0.14145528 -0.12928046 -0.12106479 0.08462438
0.12233744 -0.15919259 -0.081567235 0.10930901 0.14207283 -0.031555958 0.019184975 -0.012100591
-0.07216568 0.11485829 -0.1187294 -0.09029787 0.0035517649 0.018915985 -0.14027499 -0.16823348
-0.15367521 -0.045733683 -0.10967746 0.041662306 0.060814004 -0.12585492 0.043074064 0.100371465
-0.1280278 -0.046023566 -0.008570136 -0.061033264 0.07155429 -0.1652532 -0.11491595 -0.073644884
-0.11677155 -0.031724274 0.013302326 -0.13651495 -0.18167101 0.03529948 0.10305146 -0.03260574
-0.10288695 -0.015952032 0.047828615 -0.013878899 0.108571626 -0.12738752 0.053361926 0.065616466
-0.08558797 0.0051669176 0.026780846 -0.0680517 0.005715854 0.106200114 -0.16514046 -0.14721285
00000000: 7eed 323d 8a86 bf3b bacd 7e3d 1ff3 1dbc
00000010: 204f efbd 9857 20be 5dc8 dd3d 889c 60ba
00000020: f75e babd 83e4 05be 0d65 e9bd db08 7ebd
00000030: 9185 e73c 596b 08be 5236 533d 78d8 ae3c
00000040: 4e5b 313d b844 c5bc b92e 203d 0157 a2bd
00000050: 085e e33d 2795 ba3c 5cb3 09bd ba3d e8bc
00000060: c423 29bd 5b94 afbd a66a b43c ce12 38bd
00000070: e628 00be a6d4 863c 3be6 b7bd 9b17 1ebe
00000080: 4b84 b13d fd8c babd 1070 a8bd e57e ed3d
00000090: 1152 c0bd 4f3a fc3d 11c9 1f3d 9e12 ccbc
000000a0: 407e 0a3d 1f2b e1bd 2b1f 443d 9662 8dbd
000000b0: e218 00be 8644 06be ecb1 88bd 0b48 02be
000000c0: d48e 9ebd 7f7f 9d3d beea 433d 0d7c db3d
000000d0: 3268 1c3e 74ac d23d 2c10 153d bc1d 653d
000000e0: ad53 c13d f59d 42bd 7b6d 6bbd 379d 7c3d
000000f0: 48c5 bb3c 58e7 76bd 9422 8dbd c28c 153e
00000100: 8677 4a3d e6ba 95bd 0014 073e eeef 10bd
00000110: f668 c93d 5d3b 8b3c f4d5 14bd 5c99 02be
00000120: 2766 f43c bee9 1f3e 4ee7 023e 989d a4bd
00000130: f52b b73d 9685 153e 8a6b a7bc ccee f7bd
00000140: 9f7c 0ebe 4705 143e 7adc 653d ae2b d73c
00000150: 3d59 ad3d 2168 dbbc 4c57 463b 2569 afbc
00000160: fc03 22bd 9a76 2b3d 3d8d c6bc 4ec4 b2bd
00000170: 56a5 b1bd 72fd 10be 3f48 69bd 2803 8fbd
00000180: 0afb e13d 95e7 17bd 4dbc ab3c f8b0 07be
00000190: 9590 ddbd 508c 253e 2189 05be 3144 373d
000001a0: 7063 0c3e c2d9 17bd 871a 373a ffb7 be3c
000001b0: b5ed d53d 145b 193e 2ef1 8abd cca1 b2bd
000001c0: b927 ddbd 3dc4 6e3d de1d 803c 4aa2 42bd
000001d0: 23a8 b03d 59db f93d 21da e4bd 4f13 b7bc
000001e0: 50b1 553d 47f8 583d 71b1 c43d 4f86 5a3c
000001f0: 1db7 7f3d 1208 b33d bd4f b53d 7ec9 d93d
00000200: 969b cc3c c24b eb3c 4d42 883d 3d45 ee3d
00000210: d52b d63d f4c2 163e f5bb 823d c348 2a3d
00000220: fd8b 043e cd66 6abc 6325 9d3d 9e72 35be
00000230: 2fa9 c93d 28c0 10be af6b 6abd 2964 c1bc
00000240: 009d 083e af3f 0dbe 0eda 9dbd 1ef9 10be
00000250: 1aff b53c e162 e83c 2b27 06be 67d8 5ebd
00000260: 93e3 943d f2b6 433d 532e 423c 517e 9abd
00000270: 31f3 1fbe 8653 7f3d 6ebf 183e cfe3 8a3d
00000280: 45f8 ce3c 7126 c8bd a342 863d de36 2d3d
00000290: ceb1 8bbc 4b99 6ebd e4bf a33d 4781 3fbd
000002a0: 943a 423c 22c2 04bd f884 04bc 3ecb 69bd
000002b0: 6181 b2bd 6650 823d 4153 8dbd 1759 cd3d
000002c0: 4dd7 01be 983f edbd cefa 653c 4808 7fbd
000002d0: 75b8 d7bd 0f69 133e 7028 b73d 880a 0a3e
000002e0: da51 75bc f312 c03d f06a 193d e49a d63d
000002f0: ddbf d83d 8f89 f1bb 6ceb 19be ddeb 7bbd
00000300: ca9b 93bd ea06 2ebe 8975 893b 289f 013e
00000310: a7d9 10be 1962 04be d1f0 f7bd 8c4f ad3d
00000320: 0d8c fa3d 6203 23be b90c a7bd 67dd df3d
00000330: 8a7b 113e d240 01bd cf29 9d3c 8f41 46bc
00000340: 9acb 93bd d33a eb3d 6628 f3bd 17ee b8bd
00000350: bac4 683b b2f5 9a3c 3fa4 0fbe 6645 2cbe
00000360: 095d 1dbe 3e53 3bbd 939e e0bd 18a6 2a3d
00000370: 1b18 793d 1de0 00be 6e6e 303d 8e8f cd3d
00000380: b819 03be 3583 3cbd c169 0cbc 04fe 79bd
00000390: 0e8b 923d 2338 29be 0e59 ebbd 21d3 96bd
000003a0: ec25 efbd 50f1 01bd 00f2 593c 93ca 0bbe
000003b0: f707 3abe 3096 103d a50c d33d 998d 05bd
000003c0: 65b6 d2bd d6ad 82bc f0e7 433d 5264 63bc
000003d0: cd5a de3d e071 02be 0992 5a3d ed61 863d
000003e0: bf48 afbd 3f4f a93b 8163 db3c b15e 8bbd
000003f0: 0f4c bb3b 727f d93d 951a 29be f7be 16be

shared_mlp.mlp.2.bias f4 [128]
0.14961417 -0.12742063 -0.10152938 0.20585948 -0.0743189 0.06662488 0.11347164 0.17062606
-0.09426489 -0.095643334 0.13674505 -0.20167843 -0.18495807 -0.10853348 -0.19362953 -0.12705404
0.21119544 -0.22007312 -0.19213012 0.18557069 -0.07832801 0.25133583 -0.046649978 -0.23878244
-0.1572942 0.007547542 0.07125522 0.108207285 -0.15483168 0.22457504 0.0849494 -0.0057465327
-0.14130911 -0.18435507 -0.111262955 -0.21419638 -0.23173259 0.13221367 0.10631059 -0.15812388
0.24415067 -0.07334551 -0.06983141 -0.14013623 -0.13009813 -0.18573472 -0.19113684 0.14841451
-0.21055536 0.18681929 -0.19546197 0.1416751 0.1068523 -0.16406323 0.15971158 0.23951493
-0.22800009 -0.13295457 0.13663958 0.21336824 -0.19343661 0.24214704 -0.20766954 0.14442039
0.08706142 -0.089448154 -0.0752175 -0.0793953 -0.07146418 0.12534557 -0.203084 0.17421447
0.15010458 -0.20176451 0.17059864 0.095177114 -0.09374189 0.24908498 -0.22725828 0.14969237
0.12138434 0.12952618 0.26654124 0.111788735 0.10526504 -0.043369595 -0.08865604 -0.1560114
-0.24309821 9.366481e-05 0.27374986 -0.2555333 0.121135816 -0.08326197 -0.18248166 -0.11320924
-0.13128789 -0.19359207 -0.19472173 0.27836332 0.17853934 0.20623526 0.1397879 0.2638982
0.15719464 0.15280005 0.2109899 0.21835397 0.054161776 0.21268906 -0.14185895 0.102927536
0.24020036 -0.012320414 0.058460817 -0.04102035 -0.20147203 -0.13320497 0.081354104 0.09226719
-0.15470149 0.19025506 -0.19389147 0.16439871 -0.14552017 0.09220883 0.15372454 -0.028823461
00000000: 7534 193e 8e7a 02be a3ee cfbd d4cc 523e
00000010: 8234 98bd a072 883d d263 e83d 99b8 2e3e
00000020: f30d c1bd a7e0 c3bd e506 0c3e ca84 4ebe
00000030: a665 3dbe cd46 debd d246 46be 741a 02be
00000040: 9e43 583e d95a 61be c2bd 44be 3e06 3e3e
00000050: 706a a0bd 17af 803e 0c14 3fbd 6283 74be
00000060: bb11 21be 5f51 f73b 42ee 913d c89b dd3d
00000070: 328c 1ebe 00f7 653e f3f9 ad3d 694d bcbb
00000080: 56b3 10be 93c7 3cbe d5dd e3bd 4c56 5bbe
00000090: 4f4b 6dbe 0563 073e 5eb9 d93d 3aeb 21be
000000a0: a202 7a3e 2c36 96bd c503 8fbd df7f 0fbe
000000b0: 7238 05be 3e31 3ebe 60b9 43be f9f9 173e
000000c0: d39b 57be 8e4d 3f3e 2f27 48be 4713 113e
000000d0: 61d5 da3d 3100 28be 6f8b 233e 6743 753e
000000e0: db78 69be 3e25 08be 3feb 0b3e 347d 5a3e
000000f0: 3f14 46be 65f5 773e 53a7 54be f0e2 133e
00000100: 424d b23d 9830 b7bd a20b 9abd 019a a2bd
00000110: d05b 92bd 975a 003e 41f5 4fbe 4765 323e
00000120: 04b5 193e 5b9b 4ebe 69b1 2e3e 38ec c23d
00000130: bffb bfbd 2210 7f3e 65b6 68be f548 193e
00000140: 5a98 f83d 83a2 043e 1878 883e 7ef1 e43d
00000150: 3395 d73d 51a4 31bd 4c91 b5bd 74c1 1fbe
00000160: bdee 78be e96d c438 f128 8c3e 43d5 82be
00000170: 0e16 f83d 4085 aabd 79dc 3abe 3fda e7bd
00000180: 5570 06be 003d 46be 2265 47be a385 8e3e
00000190: 04d3 363e 562f 533e 8f24 0f3e aa1d 873e
000001a0: a2f7 203e 9e77 1c3e bd0d 583e 2f98 5f3e
000001b0: bdd8 5d3d 29cb 593e 7943 11be accb d23d
000001c0: 15f7 753e 90db 49bc 9c74 6f3d f404 28bd
000001d0: af4e 4ebe e266 08be fb9c a63d 95f6 bc3d
000001e0: 116a 1ebe 39d2 423e 7c8b 46be 2358 283e
000001f0: 3d03 15be fcd7 bc3d f769 1d3e 2e1f ecbc

shared_mlp.mlp.5.weight f4 [128, 128]
-0.170128 0.15840903 -0.034501363 -0.11155779 0.14145494 -0.14566965 -0.040845476 -0.017862074
0.09050655 0.15889014 0.024920223 0.1678121 0.023512568 0.0800924 0.1749509 0.14959641
-0.090361536 -0.033846095 0.03543283 -0.12839578 0.13655768 -0.062491044 -0.057325576 0.16773224
0.0031258424 0.0034901204 -0.16355753 -0.11890668 -0.09174393 -0.10996473 -0.0031865174 -0.082738385
0.040406767 0.013292295 0.0261557 0.13696264 -0.008550296 -0.033453554 -0.06888158 0.16758183
-0.11968928 0.09630794 0.1035181 -0.0020758724 -0.020588716 0.06781719 0.08312724 -0.04954715
0.07124264 -0.16232781 0.18054387 -0.16780347 0.0373088 0.09055926 -0.17559789 -0.14197889
0.17263712 0.10452293 -0.08371418 -0.02408637 -0.05401904 -0.17762727 0.13443549 -0.07836329
-0.18330118 -0.0049276943 -0.051692147 0.11990971 0.06708334 -0.2035839 -0.05301371 -0.15629278
-0.028470593 0.09147045 -0.03453531 0.06239691 -0.05106156 -0.20831901 0.064402744 -0.1775858
0.011624329 -0.06525477 -0.18701002 -0.018649671 -0.18521889 0.012531711 -0.07103238 0.19200149
0.18398455 -0.10470384 -0.025446335 0.029576514 -0.104234785 0.03662787 0.12738729 -0.02657784
0.043822765 0.09439791 0.03958712 -0.10822796 -0.1760715 -0.15049826 -0.01692033 -0.16900593
-0.054131187 -0.02404055 -0.039770395 -0.09117921 -0.18356727 -0.13504077 0.11456272 -0.026730135
-0.08314978 0.057846684 -0.049599018 -0.08363157 -0.04316097 0.011970276 -0.02792571 -0.14260286
0.14490196 0.02310946 0.009333549 0.012321917 0.14933579 -0.16954328 -0.043231845 0.14227705
-0.11855675 0.1748722 0.07873236 0.07338043 0.14187437 -0.046952818 -0.14900503 -0.20138572
-0.011878177 0.010028156 0.046319827 0.18067576 0.048246186 -0.051723428 -0.014922424 0.07971472
-0.028753731 0.07658296 0.061209228 -0.17227823 0.08078394 -0.10225763 -0.084204145 0.194181
0.03140186 0.10717776 -0.07148098 0.089923464 -0.039531335 -0.16489866 -0.07532363 0.083110966
0.1821495 -0.019948898 0.013206989 0.13455285 0.11159154 0.001772346 -0.04649142 0.14743413
-0.076948434 0.15804711 -0.0040309136 -0.029277965 0.20201054 0.06301424 0.036705755 -0.081950046
-0.072022595 -0.0019166504 -0.046989862 -0.20002782 -0.07201398 0.0842129 -0.17259638 -0.1705753
0.14547728 0.18923229 -0.12620667 0.025348336 0.14666934 0.066364534 -0.0726755 -0.06597344
-0.025553446 0.033348173 0.01686108 -0.021544343 -0.012742306 0.010284416 0.11699823 -0.12340087
-0.033948757 -0.07795445 -0.1541008 0.019653393 0.1521426 -0.15856594 0.14760397 -0.022581482
-0.055472758 -0.17865929 -0.10537716 -0.076301 -0.18827388 0.029198192 0.06318267 0.10661029
0.115450226 -0.10062223 -0.050693277 0.15348956 -0.095918074 0.18520138 0.0496046 0.17671542
-0.0053533255 -0.09621936 0.100437745 -0.12294652 -0.023931917 -0.15599598 0.026385238 -0.079492986
0.00996699 -0.12902725 -0.109610185 -0.12707396 -0.119297855 -0.015330621 -0.05353558 -0.075531594
-0.0072345496 -0.08013399 0.13274255 0.056763798 -0.0055873413 0.14019746 -0.07823373 -0.10996191
0.091742426 -0.20363416 -0.039159868 0.020638453 0.13321325 0.052090343 0.014395155 0.051365614
00000000: 0936 2ebe fa35 223e 4d51 0dbd 6978 e4bd
00000010: 90d9 103e 6d2a 15be 964d 27bd 7c53 92bc
00000020: 805b b93d 19b4 223e 7f25 cc3c efd6 2b3e
00000030: 6e9d c03c 7c07 a43d 5426 333e cd2f 193e
00000040: 780f b9bd 34a2 0abd 0422 113d 2f7a 03be
00000050: c7d5 0b3e 9cf6 7fbd 39ce 6abd 00c2 2b3e
00000060: efda 4c3b 81ba 643b a07b 27be 5885 f3bd
00000070: 3ee4 bbbd 3035 e1bd e4d4 50bb be72 a9bd
00000080: 9181 253d edc7 593c 7b44 d63c ef3f 0c3e
00000090: 8a16 0cbc 9806 09bd c911 8dbd 929a 2b3e
000000a0: a71f f5bd 193d c53d 4c01 d43d 5c0b 08bb
000000b0: aba9 a8bc bde3 8a3d 9d3e aa3d f4f1 4abd
000000c0: a9e7 913d 4339 26be 7ee0 383e acd4 2bbe
000000d0: 1dd1 183d 2277 b93d efcf 33be ea62 11be
000000e0: c9c7 303e 1e10 d63d 5772 abbd c750 c5bc
000000f0: 1243 5dbd ece3 35be 75a9 093e ef7c a0bd
00000100: 4eb3 3bbe 7f78 a1bb 25bb 53bd 3993 f53d
00000110: fd62 893d 4c78 50be e724 59bd 370b 20be
00000120: 293b e9bc dc54 bb3d e674 0dbd e793 7f3d
00000130: ed25 51bd 9451 55be 96e5 833d 0dd9 35be
00000140: f873 3e3c 4ba4 85bd 8e7f 3fbe 32c7 98bc
00000150: 05aa 3dbe ce51 4d3c 6d79 91bd 0a9c 443e
00000160: 7266 3c3e f86e d6bd d574 d0bc 724a f23c
00000170: 0c79 d5bd 1b07 163d d071 023e c5b9 d9bc
00000180: 807f 333d b153 c13d 1b26 223d 9fa6 ddbd
00000190: 164c 34be 371c 1abe 819c 8abc e40f 2dbe
000001a0: aab8 5dbd b0f0 c4bc 48e6 22bd 2abc babd
000001b0: 0ff9 3bbe 2148 0abe dc9f ea3d 28f9 dabc
000001c0: 6f4a aabd a5f0 6c3d 5728 4bbd 0747 abbd
000001d0: 8fc9 30bd fa1e 443c 75c4 e4bc 7c06 12be
000001e0: 2e61 143e 0d50 bd3c beeb 183c dee1 493c
000001f0: 7beb 183e c19c 2dbe e013 31bd 13b1 113e
00000200: e2cd f2bd b311 333e 6e3e a13d 7b48 963d
00000210: 8447 113e 9951 40bd c694 18be 0f38 4ebe
00000220: af9c 42bc 234d 243c dcb9 3d3d 1103 393e
00000230: cb9d 453d f2db 53bd 2f7d 74bc 7941 a33d
00000240: f28c ebbc 87d7 9c3d 87b6 7a3d b469 30be
00000250: 0d72 a53d 736c d1bd 3973 acbd 62d7 463e
00000260: 3d9f 003d 0380 db3d 9f64 92bd cb29 b83d
00000270: 9ceb 21bd 32db 28be 4643 9abd 1536 aa3d
00000280: 6685 3a3e df6b a3bc 2062 583c 39c8 093e
00000290: 1b8a e43d 104e e83a ca6d 3ebd f9f8 163e
000002a0: 2497 9dbd 1ad7 213e c115 84bb 58d8 efbc
000002b0: dadb 4e3e 9c0d 813d c658 163d 6dd5 a7bd
000002c0: 9580 93bd 1e38 fbba 7178 40bd 18d4 4cbe
000002d0: 117c 93bd d077 ac3d 1bbd 30be 4bab 2ebe
000002e0: fff7 143e 1cc6 413e 523c 01be 50a7 cf3c
000002f0: 7d30 163e 21ea 873d e4d6 94bd 151d 87bd
00000300: 7655 d1bc 1898 083d 3f20 8a3c c37d b0bc
00000310: 1bc5 50bc f87f 283c c59c ef3d 98b9 fcbd
00000320: da0d 0bbd 95a6 9fbd 9acc 1dbe 2700 a13c
00000330: 45cb 1b3e 1c5f 22be 7f25 173e cdfc b8bc
00000340: 6737 63bd 76f2 36be fbcf d7bd b343 9cbd
00000350: deca 40be 0c31 ef3c ea65 813d 7f56 da3d
00000360: 2b71 ec3d 0713 cebd c1a3 4fbd 5e2c 1d3e
00000370: b270 c4bd 6ea5 3d3e 312e 4b3d e3f4 343e
00000380: f36a afbb a80e c5bd 4eb2 cd3d 63cb fbbd
00000390: de0c c4bc 69bd 1fbe db25 d83c 38cd a2bd
000003a0: 964c 233c b81f 04be 4e7b e0bd ad1f 02be
000003b0: 6f52 f4bd 492d 7bbc 2048 5bbd 4fb0 9abd
000003c0: cd0f edbb 4a1d a4bd aaed 073e 2881 683d
000003d0: 0416 b7bb ec8f 0f3e 0139 a0bd b633 e1bd
000003e0: 74e3 bb3d 7985 50be 1966 20bd f911 a93c
000003f0: 0e69 083e af5c 553d a8d9 6b3c c064 523d

shared_mlp.mlp.5.bias f4 [128]
-0.3794009 -0.3738937 -0.12962815 1.4459336 0.057998307 -0.3351077 0.5057069 -0.22508435
0.34193686 -0.37553468 -0.12912177 -0.43535444 -0.1231771 0.18791051 0.014872471 0.72764623
0.19984798 -0.29434198 -0.1272272 -0.4400031 -0.15352118 0.37022915 -0.25392604 -0.35278928
-0.42067516 0.13450569 1.2719373 0.043803502 -0.27508456 -0.35966107 0.027745979 0.20809121
0.83543295 2.187751 0.49782252 -0.2852728 -0.1206408 -0.15280773 0.31139842 -0.42783943
0.42900956 0.1364727 -0.34708843 -0.39278185 0.2382988 0.39432824 1.6255199 0.4268353
-0.24130982 -0.35772222 -0.42612034 0.4714607 -0.3181721 0.17708802 0.38262814 -0.018855775
-0.16721642 0.28736028 -0.14686361 -0.24213386 1.4022133 -0.5403977 2.143665 0.48413503
-0.35857555 0.8491899 -0.19926241 -0.33684418 -0.15111907 -0.34887663 -0.07210922 -0.038771555
0.31213066 0.6684449 -0.30217925 -0.06698195 0.08427284 -0.21616633 0.23446877 -0.30202317
0.29040584 0.111739665 -0.30467921 0.32076558 0.04921035 -0.35848433 -0.43327174 0.58401984
-0.3524232 0.006594418 -0.011835874 -0.07835849 -0.35309994 1.2715181 -0.34537804 0.3443828
0.39744544 -0.26895738 -0.101708435 -0.37630683 -0.2806652 0.3427271 -0.10667181 -0.30765736
0.40895298 0.9264177 -0.28828806 0.007907485 0.37361896 -0.4327623 -0.32484314 -0.02166569
0.12314685 -0.47219726 1.4538972 -0.22744824 0.869887 -0.052649774 -0.05112546 -0.1425545
-0.28501156 1.5265697 0.20701171 0.113756076 -0.47490785 -0.3195999 0.7783004 0.93670505
00000000: d640 c2be ff6e bfbe 3ebd 04be 5a14 b93f
00000010: a28f 6d3d 3d93 abbe 0276 013f 837c 66be
00000020: 5912 af3e 1546 c0be 7f38 04be c7e6 debe
00000030: 4744 fcbd 9d6b 403e aaab 733c 0647 3a3f
00000040: f3a4 4c3e feb3 96be d947 02be 1648 e1be
00000050: a834 1dbe ad8e bd3e 9802 82be cca0 b4be
00000060: bc62 d7be dcbb 093e d7ce a23f 4d6b 333d
00000070: e2d7 8cbe 7f25 b8be 894b e33c dd15 553e
00000080: efde 553f 1d04 0c40 98e2 fe3e 470f 92be
00000090: 8612 f7bd a179 1cbe 9d6f 9f3e c50d dbbe
000000a0: 24a7 db3e 80bf 0b3e 93b5 b1be b41a c9be
000000b0: 9a04 743e 64e5 c93e 0911 d03f 288a da3e
000000c0: ec19 77be 5e27 b7be 722c dabe 4c63 f13e
000000d0: 74e7 a2be 9056 353e d6e7 c33e 6d77 9abc
000000e0: c83a 2bbe e320 933e 6a63 16be f0f1 77be
000000f0: ba7b b33f 8157 0abf cf31 0940 8ce0 f73e
00000100: 3797 b7be 8264 593f 720b 4cbe d776 acbe
00000110: f5be 1abe f59f b2be 00ae 93bd ecce 1ebd
00000120: 97cf 9f3e 341f 2b3f 3db7 9abe d52d 89bd
00000130: 3d97 ac3d b55a 5dbe 9518 703e c8a2 9abe
00000140: 13b0 943e c4d7 e43d eafe 9bbe 633b a43e
00000150: cb90 493d 428b b7be cbd5 ddbe 5382 153f
00000160: d070 b4be fd15 d83b 41eb 41bc 6a7a a0bd
00000170: 84c9 b4be 1bc1 a23f 64d5 b0be f152 b03e
00000180: f87d cb3e c8b4 89be 834c d0bd 4aab c0be
00000190: 59b3 8fbe ed79 af3e c076 dabd 4485 9dbe
000001a0: 4962 d13e b629 6d3f 7e9a 93be 658e 013c
000001b0: fc4a bf3e 0593 ddbe d751 a6be 3f7c b1bc
000001c0: 6a34 fc3d d7c3 f1be 4e19 ba3f 31e8 68be
000001d0: eab0 5e3f 4aa7 57bd ee68 51bd cff9 11be
000001e0: 09ed 91be a366 c33f e1fa 533e f2f8 e83d
000001f0: 1f27 f3be 99a2 a3be b23e 473f e7cb 6f3f

model_action_1.0.weight f4 [128, 128]
-0.017837906 0.1350353 -0.006018183 -0.07002344 0.12335004 0.14654006 -0.012780598 -0.1317017
0.014035108 -0.128531 -0.08803985 0.1538865 0.046186168 -0.07531672 0.13154866 0.11970155
-0.0654623 0.11029392 -0.14149715 0.13451786 -0.057322208 0.024462556 0.15217099 0.089018926
0.07084821 -0.096730776 0.04055603 -0.046736896 -0.06235477 0.15861864 0.13043581 0.07527975
0.105473615 -0.1667155 -0.092605904 0.01569915 0.11130199 0.053093303 -0.089058034 -0.015565025
0.028954929 0.00037183176 -0.12764916 -0.028180476 0.048463378 -0.020327648 -0.016715001 -0.033074886
0.12933724 -0.056109246 0.06395928 0.0029183112 -0.12217537 0.07455009 -0.02704623 -0.029359613
0.03839683 -0.044461694 0.1289533 0.087232746 0.02605413 -0.1280871 -0.17657389 -0.0053580566
0.07763885 -0.09605327 0.084754646 0.04045157 -0.11966996 -0.11563506 -0.09847631 0.07871152
-0.0015849331 -0.05406075 0.04889781 -0.12318046 -0.0095191365 0.013425809 0.044842087 0.04074898
-0.12548792 0.05475184 0.009621415 -0.055147152 -0.0084915785 0.0922804 -0.09180074 -0.0861853
0.15635355 -0.08583005 0.041494664 -0.037081808 -0.07107334 0.06665054 -0.043256704 -0.12756103
-0.023457782 0.11166856 -0.14570753 -0.13811353 0.10818635 -0.15810534 0.042322736 -0.021774812
-0.13678774 0.05826702 0.0927696 0.09126606 0.08800457 0.00874319 0.09923674 -0.106085695
-0.037418894 0.11623536 -0.063828036 0.037161518 -0.1139498 0.14875482 0.13133433 0.02133491
0.10938942 -0.08628585 -0.14905125 -0.08974838 0.14200306 -0.11419883 -0.03855985 -0.1654229
0.09793136 -0.011215427 0.093363024 -0.038386777 0.11064426 -0.06974411 0.08085658 0.020702263
0.08987953 -0.07898419 -0.10833393 0.08116612 -0.0064658257 -0.16689688 -0.08696824 0.033480622
0.02067069 0.109629124 0.12673065 0.13616595 0.12899478 -0.03985592 0.102982454 0.06754451
-0.024898523 0.016428733 0.060954396 -0.038388494 0.13040598 0.14427546 0.051798377 -0.08115573
-0.16478743 -0.04831631 -0.061371192 -0.12691355 0.002594182 0.018168874 -0.11561172 0.17344268
0.044431433 -0.044281065 -0.021879457 0.07923203 -0.053948283 -0.0015573753 -0.22201301 0.07410766
-0.11701488 0.15836103 0.04497606 -0.046558302 0.12895134 -0.09137435 -0.0028630204 0.04039331
0.12926893 0.006323174 0.04066796 -0.035832074 -0.07655743 0.13060842 -0.16142403 -0.18462911
0.11348124 0.027531512 0.082952306 0.104924776 -0.13440682 -0.015977181 0.06305178 -0.0043986873
-0.09272954 0.08532011 0.082271576 0.10799471 0.09142786 -0.13210587 -6.357112e-05 0.16884056
0.097269356 -0.0033766904 0.13396518 -0.1487022 -0.09157026 -0.104076624 -0.112612806 -0.055516142
0.0056521497 0.06550554 0.14692992 -0.013832424 -0.11424193 -0.15131307 0.1600326 0.012877689
-0.15466306 -0.013836629 0.07753131 0.009412891 0.13181154 -0.04701653 0.14662102 -0.053681806
0.1321004 -0.05453224 0.044067834 0.14353861 -0.07412743 -0.0870652 0.009532047 0.07183296
0.14286797 0.042713456 0.08930264 0.14164068 0.024100458 -0.03868365 -0.008521181 -0.11202161
-0.056167126 -0.012631976 0.041468065 0.12884685 -0.07571754 -0.10343211 -0.062322505 0.027079487
00000000: cd20 92bc b246 0a3e 2e34 c5bb 7368 8fbd
00000010: f29e fc3d 990e 163e b765 51bc cfdc 06be
00000020: 82f3 653c a19d 03be 3d4e b4bd 6c94 1d3e
00000030: b52d 3d3d a73f 9abd b1b4 063e 1626 f53d
00000040: 1911 86bd c7e1 e13d a1e4 10be 0dbf 093e
00000050: b1ca 6abd b365 c83c b6d2 1b3e 8e4f b63d
00000060: de18 913d c91a c6bd 141e 263d 306f 3fbd
00000070: b767 7fbd ed6c 223e f790 053e 452c 9a3d
00000080: 8d02 d83d 78b7 2abe 2aa8 bdbd 819b 803c
00000090: 4cf2 e33d 5d78 593d 0f64 b6bd 7204 7fbc
000000a0: e332 ed3c 6af2 c239 76b6 02be beda e6bc
000000b0: 8981 463d 2b86 a6bc e6ed 88bc 8879 07bd
000000c0: fb70 043e cfd2 65bd 15fd 823d 2341 3f3b
000000d0: 1537 fabd b8ad 983d 0e90 ddbc 9283 f0bc
000000e0: ff45 1d3d 771d 36bd 550c 043e 15a7 b23d
000000f0: 796f d53c 4429 03be c9cf 34be a392 afbb
00000100: 1e01 9f3d 94b7 c4bd d893 ad3d 8cb0 253d
00000110: 8615 f5bd 13d2 ecbd f3ad c9bd 8133 a13d
00000120: 88bd cfba ce6e 5dbd 1249 483d 0946 fcbd
00000130: 27f6 1bbc edf7 5b3c 56ac 373d 67e8 263d
00000140: e87f 00be 7743 603d 24a3 1d3c fbe1 61bd
00000150: 4320 0bbc 82fd bc3d 0702 bcbd eb81 b0bd
00000160: 251b 203e aac7 afbd 4ff6 293d 18e3 17bd
00000170: e68e 91bd 1480 883d f12d 31bd 5c9f 02be
00000180: 892a c0bc 7cb2 e43d 5b34 15be a26d 0dbe
00000190: ce90 dd3d 5ee6 21be 9b5a 2d3d 1761 b2bc
000001a0: 1612 0cbe 66a9 6e3d fdfd bd3d b3e9 ba3d
000001b0: bd3b b43d 993f 0f3c a23c cb3d 7543 d9bd
000001c0: 8e44 19bd ce0c ee3d 46b8 82bd ad36 183d
000001d0: 835e e9bd 2f53 183e 827c 063e 8dc6 ae3c
000001e0: 8f07 e03d a3b6 b0bd e4a0 18be 00ce b7bd
000001f0: 4069 113e 14e1 e9bd eff0 1dbd 9f64 29be
00000200: 3d90 c83d e9c0 37bc 1d35 bf3d 743b 1dbd
00000210: 7599 e23d 00d6 8ebd 2298 a53d cb97 a93c
00000220: c212 b83d 77c2 a1bd 2ede ddbd 6c3a a63d
00000230: 47df d3bb 04e7 2abe 681c b2bd fa22 093d
00000240: 9455 a93c 3c85 e03d aec5 013e 166f 0b3e
00000250: 3517 043e f63f 23bd 77e8 d23d c754 8a3d
00000260: fdf7 cbbc 8d95 863c 51ab 793d 413d 1dbd
00000270: 2589 053e f2bc 133e 892a 543d fa34 a6bd
00000280: 09be 28be 53e7 45bd 5c60 7bbd a0f5 01be
00000290: 2703 2a3b e4d6 943c d6c5 ecbd f59a 313e
000002a0: bcfd 353d 1060 35bd 8c3c b3bc 6744 a23d
000002b0: e0f8 5cbd d820 ccba 6157 63be c2c5 973d
000002c0: 7fa5 efbd 6529 223e d138 383d ebb3 3ebd
000002d0: d20b 043e 7a22 bbbd 83a1 3bbb 7573 253d
000002e0: 135f 043e a132 cf3b 7293 263d a7c4 12bd
000002f0: 24ca 9cbd 37be 053e 574c 25be 6a0f 3dbe
00000300: da68 e83d c489 e13c e6e2 a93d cde2 d63d
00000310: f1a1 09be 94e2 82bc 4b21 813d dd22 90bb
00000320: fce8 bdbd 4fbc ae3d 007e a83d 552c dd3d
00000330: 883e bb3d c346 07be 7c51 85b8 8ae4 2c3e
00000340: 2835 c73d 774b 5dbb 2b2e 093e 6445 18be
00000350: 3089 bbbd 2026 d5bd 8ba1 e6bd e564 63bd
00000360: ab35 b93b c527 863d cc74 163e 64a1 62bc
00000370: acf7 e9bd d0f1 1abe 96df 233e f1fc 523c
00000380: fe5f 1ebe 07b3 62bc bcc8 9e3d 8738 1a3c
00000390: 9bf9 063e 6894 40bd d223 163e 74e1 5bbd
000003a0: 5445 073e 335d 5fbd 7980 343d c9fb 123e
000003b0: 1fd0 97bd 3d4f b2bd 4e2c 1c3c 291d 933d
000003c0: fb4b 123e 4ef4 2e3d 4de4 b63d 410a 113e
000003d0: 536e c53c bf72 1ebd 6c9c 0bbc 966b e5bd
000003e0: 800f 66bd 59f6 4ebc 6bda 293d 6ef0 033e
000003f0: cc11 9bbd 37d4 d3bd e245 7fbd cdd5 dd3c

model_action_1.0.bias f4 [128]
-0.17104052 -0.114067 -0.24020207 -0.053360943 0.2134475 -0.07872293 -0.11865732 0.07139953
-0.28045723 -0.21305875 0.076501615 0.09881763 0.29899177 0.22968125 0.5716725 -0.19355743
0.6800681 0.14199704 0.8515977 -0.050051548 0.26541942 -0.2539323 -0.26602697 0.58277124
-0.293578 0.1071944 0.2431754 0.52724856 -0.08698699 -0.17593196 0.71836996 -0.16010244
0.14742449 0.18145414 -0.098015994 0.36363328 1.2422556 -0.087239526 -0.23204874 -0.05493247
-0.0804394 0.6044517 -0.14268686 0.16248319 -0.21056212 1.1919967 -0.039265532 -0.19472603
0.082371406 0.024740541 -0.006651306 -0.23717931 0.13774714 -0.08943551 0.058301754 0.32589406
-0.19291832 -0.23610283 -0.02149465 -0.117922954 0.15612145 0.3075561 -0.101369455 0.18625815
0.27088535 1.0457885 0.030258974 -0.22396277 0.02031919 0.42961088 -0.13626075 0.058615014
-0.17143913 -0.014860661 -0.06912074 -0.14151399 0.22237144 -0.01089416 0.5714988 -0.03176512
0.6128454 -0.12877536 0.08627418 1.2011119 -0.16639249 -0.06926993 -0.09081963 0.044063807
0.47017297 -0.052459728 -0.037939668 0.43744862 -0.08950984 0.009067447 1.1050987 -0.19515137
-0.073658675 0.23453782 -0.16900322 -0.15036158 0.3538499 0.02068741 -0.0074989907 0.25103644
-0.121514656 0.07912991 0.22978207 -0.10273292 0.43798724 0.3104716 0.057617582 0.0190307
0.2603544 0.08881304 -0.18514605 0.33222014 0.16200416 -0.19534428 -0.15060502 0.007924649
0.04966249 -0.103733964 -0.2832112 -0.21941692 -0.09703624 -0.2622939 0.6630513 -0.0757196
00000000: 3f25 2fbe f69b e9bd 88f7 75be 0191 5abd
00000010: fb91 5a3e 7d39 a1bd 9c02 f3bd eb39 923d
00000020: 1798 8fbe 132c 5abe e1ac 9c3d e660 ca3d
00000030: 7315 993e 9031 6b3e 2159 123f eb33 46be
00000040: f118 2e3f ac67 113e 4f02 5a3f da02 4dbd
00000050: 0ee5 873e 6a03 82be b034 88be 7f30 153f
00000060: db4f 96be bd88 db3d f902 793e c3f9 063f
00000070: 3c26 b2bd 8227 34be 18e7 373f e5f1 23be
00000080: 72f6 163e 1dcf 393e 9cbc c8bd 242e ba3e
00000090: 3b02 9f3f a3aa b2bd 2f9e 6dbe df00 61bd
000000a0: 6abd a4bd 59bd 1a3f 811c 12be fe61 263e
000000b0: 999d 57be 5993 983f e5d4 20bd 4366 47be
000000c0: 57b2 a83d adac ca3c 33f3 d9bb 22df 72be
000000d0: 960d 0d3e f729 b7bd d2cd 6e3d 96db a63e
000000e0: 618c 45be f1c4 71be 8c15 b0bc 9781 f1bd
000000f0: 4dde 1f3e fe77 9d3e ca9a cfbd 75ba 3e3e
00000100: 7cb1 8a3e 66dc 853f abe1 f73c 7f56 65be
00000110: 6e74 a63c f5f5 db3e f087 0bbe 4c16 703d
00000120: bd8d 2fbe 217a 73bc 2d8f 8dbd 0be9 10be
00000130: 57b5 633e 6b7d 32bc bf4d 123f 241c 02bd
00000140: 70e3 1c3f b0dd 03be 84b0 b03d 09be 993f
00000150: cb62 2abe 65dd 8dbd a4ff b9bd 407c 343d
00000160: 83ba f03e 03e0 56bd a066 1bbd 44f9 df3e
00000170: ef50 b7bd a18f 143c e073 8d3f c3d5 47be
00000180: 5cda 96bd af2a 703e 2e0f 2dbe 63f8 19be
00000190: d02b b53e a578 a93c 18ba f5bb d987 803e
000001a0: addc f8bd dd0e a23d fe4b 6b3e a365 d2bd
000001b0: dd3f e03e 22f6 9e3e 6a00 6c3d 45e6 9b3c
000001c0: 2c4d 853e 9ce3 b53d ed96 3dbe c218 aa3e
000001d0: 6be4 253e 5508 48be 3438 1abe 63d6 013c
000001e0: e56a 4b3d 7972 d4bd 0f01 91be d4ae 60be
000001f0: f0ba c6bd 634b 86be bbbd 293f e112 9bbd

model_action_1.2.weight f4 [16, 128]
-0.044164583 0.073711224 -0.25012606 0.08620994 0.23205316 -0.1615109 -0.17354867 0.15305725
-0.19913445 0.05387311 0.15637746 0.09069531 0.22841571 0.0675891 0.21664742 -0.04490327
0.38684806 -0.13152795 0.35124078 -0.18116617 0.18641303 -0.31699285 -0.024117583 0.5075476
-0.097220495 -0.11307463 0.04093738 0.20154075 -0.150298 -0.13738315 0.44884026 -0.066156544
-0.13433453 -0.022487855 -0.25074345 0.18078756 0.7008038 0.11186804 -0.29293203 -0.20181379
0.029028168 0.4544183 -0.1710901 0.16509753 0.02477232 0.68192995 -0.018244304 -0.25900927
0.17393295 -0.13605693 0.15547144 -0.19847415 -0.1475523 -0.11397706 0.15114981 0.25009236
0.04668939 -0.29324895 -0.20997722 0.08663693 0.04244007 0.30903894 -0.19533175 0.019231321
0.1650005 0.60573745 -0.21188039 -0.07730769 0.041228104 0.17335555 -0.22687191 -0.12131763
-0.2525788 -0.1600929 0.10690256 0.145448 0.0102896355 0.15464884 0.32331637 -0.09582477
0.44867215 0.08333448 -0.12582651 0.5234974 -0.11351882 0.08753124 0.07695563 0.17908989
0.20596662 -0.08033087 0.023040058 0.18972972 -0.08194531 -0.025351603 0.7008482 -0.21820153
0.12838405 0.006709918 -0.13285312 -0.22574645 -0.05654085 -0.11727039 -0.17699024 0.18731408
0.0133887185 -0.068569265 0.12325687 0.16306639 0.050089363 0.21266787 0.16371961 -0.1625021
-0.0794731 0.16307507 -0.25039938 0.3459141 0.012922358 -0.26229015 -0.07024188 -0.10533949
-0.05947695 0.042528957 -0.28744528 -0.026660573 0.007191069 -0.28443488 0.44070232 -0.071187556
-0.13566749 -0.25293413 -0.120693505 0.022455487 0.062392924 -0.29925588 0.211798 -0.06641619
-0.19013143 -0.19229412 -0.18735796 0.04623715 0.18546116 -0.11963982 0.43980545 -0.20078078
0.4174041 -0.05061849 0.59716547 -0.021601774 0.08220522 -0.21627913 -0.25465414 0.5900103
-0.224001 0.10503784 -0.069278926 0.23211627 0.06295148 -0.057760358 0.2249157 0.056711085
0.045310203 0.045465443 -0.073338166 0.31212476 0.52638394 -0.043241717 -0.1026394 -0.009411469
0.12032812 0.32449955 0.029883476 -0.06014931 -0.1113842 0.84392834 -0.14442594 -0.27292863
0.22122023 0.18470836 0.19311722 -0.19237788 -0.17444576 -0.2312125 0.14074554 0.15782154
-0.031337876 -0.23756365 -0.19528386 -0.14020416 -0.013336034 0.18308462 -0.2918665 -0.04868548
0.18609622 0.73862034 0.13692033 0.10351418 -0.21820246 0.105881244 0.15117598 -0.15614137
-0.10072465 -0.10457191 -0.16147456 0.002913308 0.17873459 -0.0131988125 0.25964928 0.13289446
0.4297216 -0.10138608 0.0806253 0.44801334 -0.06165933 -0.116955884 -0.18190046 -0.14724438
0.2735585 -0.0721756 -0.18436182 0.085355654 -0.11336796 -0.060923174 0.42415342 -0.12615189
0.0323335 0.015155613 -0.0025961017 0.10317225 0.012323075 0.16595912 -0.16148768 0.2604108
-0.14019105 -0.006498704 0.115114294 -0.05541612 0.2902497 0.24805647 0.20658784 -0.07681658
0.100696385 -0.033980984 0.027178383 0.45062098 0.0046223365 -0.18486938 -0.2743749 -3.0351891e-06
0.003927781 0.006404203 -0.056354847 -0.15838954 -0.19474182 -0.21156159 0.2331581 -0.030102491
00000000: ece5 34bd e9f5 963d 8610 80be d68e b03d
00000010: 589f 6d3e 1d63 25be beb6 31be 0abb 1c3e
00000020: e7e9 4bbe 0daa 5c3d 6a21 203e 76be b93d
00000030: cfe5 693e 276c 8a3d d2d8 5d3e 7eec 37bd
00000040: f310 c63e 43af 06be d5d5 b33e a083 39be
00000050: 0fe3 3e3e e34c a2be 3d92 c5bc a4ee 013f
00000060: 8a1b c7bd ac93 e7bd f4ad 273d b360 4e3e
00000070: b8e7 19be 2bae 0cbe 64ce e53e 157d 87bd
00000080: fe8e 09be 7338 b8bc 7261 80be 6020 393e
00000090: e167 333f 121b e53d 30fb 95be 46a8 4ebe
000000a0: 7bcc ed3c 84a9 e83e 3e32 2fbe 540f 293e
000000b0: 52ef ca3c f692 2e3f 1475 95bc dd9c 84be
000000c0: 7b1b 323e 8252 0bbe e833 1f3e cf3c 4bbe
000000d0: f317 17be ce6c e9bd 04c7 1a3e 1b0c 803e
000000e0: 603d 3f3d ba24 96be 4504 57be b46e b13d
000000f0: a4d5 2d3d 5a3a 9e3e 0c05 48be 018b 9d3c
00000100: e4f5 283e 9c11 1b3f 2cf7 58be 7f53 9ebd
00000110: cdde 283d 1e84 313e 1c51 68be 6175 f8bd
00000120: 0252 81be 65ef 23be bbef da3d 52f0 143e
00000130: dc95 283c 445c 1e3e b989 a53e c73f c4bd
00000140: 5bb8 e53e 45ab aa3d aad8 00be ed03 063f
00000150: 8e7c e8bd 9443 b33d ea9a 9d3d 5763 373e
00000160: eae8 523e 8384 a4bd 81be bc3c 8248 423e
00000170: f1d2 a7bd 2aae cfbc ca6a 333f 3970 5fbe
00000180: 1c77 033e dfde db3b a60a 08be 142a 67be
00000190: 6197 67bd 752b f0bd ee3c 35be 43cf 3f3e
000001a0: 5b5c 5b3c 0b6e 8cbd 196e fc3d e0fa 263e
000001b0: 812a 4d3d 9bc5 593e 1da6 273e f366 26be
000001c0: cbc2 a2bd 27fd 263e 5934 80be a71b b13e
000001d0: 4cb8 533c e54a 86be fada 8fbd 3bbc d7bd
000001e0: 1a9e 73bd d832 2e3d 072c 93be 4667 dabc
000001f0: 0fa3 eb3b 73a1 91be bca3 e13e c8ca 91bd
00000200: 6bec 0abe 9580 81be 282e f7bd 92f4 b73c
00000210: b98f 7f3d 1138 99be 93e1 583e 3605 88bd
00000220: d0b1 42be c0e8 44be c4da 3fbe 2a63 3d3d
00000230: 88e9 3d3e b905 f5bd 2e2e e13e 7a99 4dbe
00000240: fdb5 d53e 5555 4fbd d6df 183f 34f6 b0bc
00000250: 365b a83d 4778 5dbe 0762 82be ea0a 173f
00000260: 8560 65be 141e d73d 1ce2 8dbd e3af 6d3e
00000270: b5ec 803d 2096 6cbd 4d50 663e e249 683d
00000280: 3197 393d f939 3a3d 5232 96bd d1ce 9f3e
00000290: 19c1 063f 3a1e 31bd 9b34 d2bd 9032 1abc
000002a0: 976e f63d ce24 a63e 31ce f43c 1f5f 76bd
000002b0: 661d e4bd b00b 583f 65e4 13be 4dbd 8bbe
000002c0: 8e87 623e 3024 3d3e 85c0 453e b5fe 44be
000002d0: e9a1 32be f8c2 6cbe 991f 103e f89b 213e
000002e0: 255c 00bd e343 73be 7ef8 47be ae91 0fbe
000002f0: 617f 5abc 897a 3b3e 876f 95be 6d6a 47bd
00000300: 0290 3e3e 3916 3d3f d834 0c3e 3eff d33d
00000310: 7770 5fbe 44d8 d83d e0cd 1a3e 86e3 1fbe
00000320: ba48 cebd cc29 d6bd 9659 25be 33ed 3e3b
00000330: 3306 373e d53f 58bc c0f0 843e 7c15 083e
00000340: 7804 dc3e 81a3 cfbd e11e a53d 0162 e53e
00000350: 7e8e 7cbd 9186 efbd 1d44 3abe 3bc7 16be
00000360: dc0f 8c3e cdd0 93bd 58c9 3cbe f2ce ae3d
00000370: 762d e8bd 948a 79bd a32a d93e f62d 01be
00000380: 2270 043d 404f 783c 5c23 2abb f94b d33d
00000390: b9e6 493c 30f1 293e 075d 25be 9054 853e
000003a0: 3e8e 0fbe 15f3 d4bb 0bc1 eb3d 03fc 62bd
000003b0: 9c9b 943e 8402 7e3e c38b 533e 0352 9dbd
000003c0: e839 ce3d a52f 0bbd 33a5 de3c cbb7 e63e
000003d0: f876 973b 664e 3dbe de7a 8cbe 27b0 4bb6
000003e0: 9db4 803b 59da d13b 57d4 66bd de30 22be
000003f0: 666a 47be 9aa3 58be ffc0 6e3e 8099 f6bc

model_action_1.2.bias f4 [16]
0.45118478 0.5568172 0.66249526 0.60524786 0.6836921 1.2529192 1.0028951 1.0432159
0.4558329 0.138831 0.55006945 0.41162667 0.43249688 0.30038506 0.51984316 0.21097182
00000000: b101 e73e 928b 0e3f 4a99 293f 86f1 1a3f
00000010: 7206 2f3f a85f a03f de5e 803f 1988 853f
00000020: ee62 e93e b729 0e3e 5ad1 0c3f bbc0 d23e
00000030: 3b70 dd3e 12cc 993e 7114 053f ff08 583e

model_action_2.0.weight f4 [128, 144]
0.11765872 -0.049735785 -0.078538 -0.01375871 -0.086703934 -0.0530197 0.13574052 -0.10646963
0.13276985 -0.07802497 0.053052522 0.115998805 -0.114839554 0.0046578418 -0.119700074 -0.14690769
0.14055997 0.1277715 -0.02744222 -0.0062915813 0.07843988 0.07854267 -0.02454376 -0.068743296
0.013570523 -0.011042794 0.13110831 -0.012330498 0.06723511 0.08365134 0.123243004 0.13916755
-0.12547268 0.094793715 0.004680337 0.13931789 -0.026796967 0.00835907 0.08616774 0.11374991
0.13317642 -0.1510988 -0.14043312 0.00591277 0.027319608 0.10777147 -0.1506416 -0.04160579
0.08856958 0.09829872 -0.052662067 0.06420979 0.092495665 0.0954605 0.022473715 -0.05913498
0.13678707 0.112866774 -0.07677297 0.14478743 0.110748805 0.114002734 0.060199466 0.035257295
0.14287965 -0.006987831 0.09968735 0.14143726 -0.024700312 0.047963053 -0.12606618 -0.068657614
0.11467842 -0.065312475 -0.0194026 0.052941192 0.11635631 0.11272971 -0.026648715 -0.021263601
-0.009200223 -0.005104923 0.016097296 -0.10701998 0.12933587 0.04646198 0.14335234 -0.09517336
-0.11258799 0.09343728 -0.04821988 -0.07464066 -0.05422299 -0.023788892 -0.08200869 0.01954705
-0.12297189 -0.058209747 -0.0029321352 -0.07929311 0.14747298 0.019579543 0.05479873 0.007159972
0.035781585 0.1107979 -0.08648554 -0.08734172 0.031871725 0.09539607 0.05591989 -0.021896444
-0.102466114 0.042157765 -0.05159015 -0.053631388 -0.018088805 0.11816638 -0.098193906 0.09130363
0.09612846 -0.04968552 0.12393721 0.105113275 -0.024217784 -0.1435926 -0.13105004 0.123859674
0.030417012 0.007587248 -0.17978317 -0.16396539 0.097752646 -0.13450943 -0.084958754 0.039031886
0.12268858 0.0839281 0.10178168 0.0037595204 -0.16982569 -0.0715113 -0.13781191 0.019947775
0.081641324 0.06756021 -0.093589574 0.0017255365 0.13288163 -0.036171667 -0.084879726 -0.10554623
0.07977756 -0.082674265 0.04038651 -0.09633369 -0.080117546 -0.13133042 -0.0134301735 0.0060510417
-0.1260915 -0.043125264 -0.10487877 -0.12674294 -0.048051998 -0.10087892 0.1418931 -0.10676125
-0.12044331 0.11740189 0.10574514 -0.0025100696 -0.087441064 0.023160422 -0.028872568 0.113039926
-0.025209922 0.00942702 -0.057943646 0.024163714 0.09206795 0.08604187 0.04223198 0.016645279
-0.13678889 -0.10071595 0.14495984 0.13473704 -0.07393737 0.104050696 -0.10918868 -0.050974496
-0.14609076 -0.08494375 -0.091941476 0.06629959 0.0003206633 0.07421517 -0.024073089 -0.08784824
-0.11494255 0.14275019 0.020414695 -0.12015917 0.06927061 0.0061715 0.05496067 -0.0464428
0.12885553 -0.068883896 -0.04983952 -0.0112716295 0.06978702 0.094341226 0.09347573 -0.098574944
-0.09834287 0.03957822 -0.0733724 0.028086975 0.011436961 0.11972701 0.010106271 0.122894526
0.0749926 -0.049790137 0.033234157 0.056279514 -0.13143712 0.054010373 0.09571273 0.115781225
0.07257648 -0.107451946 0.09153236 0.13638411 0.062547594 0.14450012 -0.0009704315 -0.086486235
0.12090658 -0.12865554 0.039526973 -0.02202991 0.09443577 0.059092123 -0.070935145 0.10889826
0.032122567 0.025250118 0.059924714 0.10415528 0.10309292 -0.039378844 -0.020393288 0.04339055
00000000: 0ef7 f03d c0b7 4bbd 88d8 a0bd 366c 61bc
00000010: d591 b1bd 2f2b 59bd 90ff 0a3e c00c dabd
00000020: d2f4 073e 8ecb 9fbd 9a4d 593d c890 ed3d
00000030: 0031 ebbd cfa0 983b 5025 f5bd f86e 16be
00000040: f4ee 0f3e 88d6 023e 82ce e0bc 9c29 cebb
00000050: 16a5 a03d fbda a03d ff0f c9bc 49c9 8cbd
00000060: e656 5e3c d6ec 34bc 4241 063e db05 4abc
00000070: 90b2 893d 6551 ab3d d466 fc3d f081 0e3e
00000080: e97b 00be 3523 c23d 835d 993b 59a9 0e3e
00000090: 5085 dbbc 7bf4 083c b678 b03d b6f5 e83d
000000a0: 665f 083e a5b9 1abe b3cd 0fbe e9bf c13b
000000b0: 5fcd df3c 4ab7 dc3d cb41 1abe d56a 2abd
000000c0: f863 b53d d750 c93d 2eb4 57bd 6c80 833d
000000d0: 5e6e bd3d cb80 c33d cc1a b83c 8537 72bd
000000e0: e911 0c3e b226 e73d 263b 9dbd 2843 143e
000000f0: 45d0 e23d 447a e93d b793 763d f469 103d
00000100: 0b4f 123e 2dfa e4bb e228 cc3d eed4 103e
00000110: 4f58 cabc e874 443d 7e17 01be 5d9c 8cbd
00000120: 85dc ea3d 8cc2 85bd 34f2 9ebc ddd8 583d
00000130: 384c ee3d d6de e63d 684e dabc 0131 aebc
00000140: 88bc 16bc 3347 a7bb 7ade 833c 4b2d dbbd
00000150: 9f70 043e eb4e 3e3d f5ca 123e 40ea c2bd
00000160: 8894 e6bd 0b5c bf3d 3582 45bd 34dd 98bd
00000170: ed18 5ebd ece0 c2bc 2cf4 a7bd 2321 a03c
00000180: b0d8 fbbd 586d 6ebd 1129 40bb 6d64 a2bd
00000190: 2803 173e 4765 a03c a274 603d 339e ea3b
000001a0: b68f 123d 02ea e23d 551f b1bd 37e0 b2bd
000001b0: ed8b 023d 045f c33d 410c 653d 2c60 b3bc
000001c0: c1d9 d1bd 9fad 2c3d 3150 53bd 96ac 5bbd
000001d0: f92e 94bc 3701 f23d e319 c9bd 66fd ba3d
000001e0: ffde c43d 0b83 4bbd cbd2 fd3d a145 d73d
000001f0: 6064 c6bc f009 13be fb31 06be 24aa fd3d
00000200: 192d f93c 739e f83b 1419 38be 8be6 27be
00000210: 8a32 c83d d7bc 09be dbfe adbd e6df 1f3d
00000220: 2644 fb3d 7fe2 ab3d ea72 d03d 4962 763b
00000230: c9e6 2dbe 8474 92bd 911e 0dbe 8469 a33c
00000240: 9133 a73d 025d 8a3d e4ab bfbd 662b e23a
00000250: 1f12 083e be28 14bd 6cd5 adbd 9f28 d8bd
00000260: 6b62 a33d 2051 a9bd 536c 253d 994a c5bd
00000270: ab14 a4bd 7b7b 06be 3b0a 5cbc d147 c63b
00000280: 211e 01be 1ea4 30bd aeca d6bd e7c8 01be
00000290: 2cd2 44bd 9b99 cebd 6d4c 113e a4a5 dabd
000002a0: fbaa f6bd 6770 f03d e890 d83d fb7f 24bb
000002b0: 4d14 b3bd edba bd3c 2a86 ecbc 7a81 e73d
000002c0: 0a85 cebc ca73 1a3c 5156 6dbd fbf2 c53c
000002d0: 1f8e bc3d b836 b03d 71fb 2c3d ae5b 883c
000002e0: 6312 0cbe 2a44 cebd 5a70 143e 82f8 093e
000002f0: 7a6c 97bd 8818 d53d 519e dfbd a2ca 50bd
00000300: d198 15be fdf6 adbd d04b bcbd 14c8 873d
00000310: b31e a839 20fe 973d ed34 c5bc c7e9 b3bd
00000320: 0067 ebbd 1b2d 123e b83c a73c 0316 f6bd
00000330: c0dd 8d3d 4b3a ca3b 711e 613d ce3a 3ebd
00000340: b4f2 033e 0013 8dbd 8624 4cbd a4ac 38bc
00000350: 7fec 8e3d f935 c13d 3470 bf3d a9e1 c9bd
00000360: fd67 c9bd c61c 223d 4544 96bd a816 e63c
00000370: 1762 3b3c 6f33 f53d c694 253c 20b0 fb3d
00000380: b895 993d bef0 4bbd 8a20 083d 5985 663d
00000390: 7497 06be fb39 5d3d 0905 c43d b51e ed3d
000003a0: faa2 943d c40f dcbd 5175 bb3d 47a8 0b3e
000003b0: f418 803d d7f7 133e 8e64 7eba b21f b1bd
000003c0: de9d f73d 47be 03be 09e7 213d 1278 b4bc
000003d0: 8a67 c13d 950a 723d 7246 91bd 0d06 df3d
000003e0: f492 033d 56d9 ce3c 9e73 753d 5d4f d53d
000003f0: 6122 d33d b64b 21bd d30f a7bc 4aba 313d
